src/modelWeights/modelPet6.pth (torch, 562829 bytes, 79 tensors)

first_layer.0.weight f4 [32, 3, 5, 5]
0.002312726 0.04933557 0.07107924 -0.020907348 -0.073730394 0.02370744 -0.031631477 0.082189195
0.11596817 0.018251756 0.09073997 -0.1485229 -0.08607031 0.10726357 0.040072605 0.117125414
0.038121346 -0.01991853 -0.12142851 0.033684473 0.06486305 0.07694556 -0.08603373 -0.16104363
-0.2521582 0.10601402 0.079711765 0.16665462 0.055479825 0.006975945 -0.08775475 -0.10641929
0.11577092 0.25189048 0.057623494 -0.0051838765 -0.10386215 -0.04880289 0.19986959 0.19248956
-0.048805133 -0.15222318 -0.24510932 -0.02777441 0.09057404 -0.045957178 -0.045232646 -0.21474011
-0.2257415 -0.06722854 -0.010949709 0.17443216 0.18767372 0.17496936 0.0864819 -0.1330186
0.060042515 0.11069814 0.2143566 0.0024029638 -0.11262445 -0.13790785 0.02367963 0.17586474
0.19242798 -0.09550464 -0.12301298 -0.17484064 -0.017506845 0.050429292 -0.073871285 -0.08621175
-0.18657142 -0.19545616 -0.008073801 -0.057109833 -0.10549331 -0.0855516 -0.15336213 -0.19074027
-0.14072278 -0.06351783 -0.155628 -0.11392221 -0.22848167 -0.10747113 -0.13770835 -0.04011189
-0.07841672 -0.07776299 -0.15782347 -0.03616778 -0.084356055 -0.13267803 -0.2699539 -0.0011304088
-0.065705426 -0.19399439 -0.22205867 -0.2305561 0.14103207 0.075256094 0.109490015 -0.05534386
0.09374685 0.008888159 0.11372272 0.10562595 0.028252272 -0.00084278686 0.022319062 0.14434277
0.0070105516 0.07442155 0.034126204 0.02280739 -0.046448726 0.009856014 0.06714462 0.094421774
0.07826653 -0.059024043 0.0029652514 0.054287195 0.09480599 -0.022024158 -0.036559682 0.11938423
0.0023060709 -0.04634012 0.05026099 0.10839162 0.01650858 0.049507022 0.00854823 0.20621578
0.06493284 0.06648235 0.151886 0.10305928 0.18243882 0.14409462 0.2444502 0.14455794
0.16296096 -0.009852011 0.15994386 0.101297356 0.20064919 -0.028372925 0.107435904 0.2230406
0.096004784 0.016063048 -0.08555603 0.20680083 0.10090935 -0.0015017041 -0.07538741 -0.10628794
0.24746 0.09077796 -0.03392435 -0.15888533 -0.045263343 0.1894743 0.038084555 0.020421257
-0.16634022 -0.16765374 0.052422725 -0.058798544 -0.12068175 -0.10188411 -0.03537122 0.1592001
0.15345107 0.042184193 0.060130637 -0.1080249 0.012777966 -0.022769587 0.101941824 -0.07597275
-0.15621856 0.09654643 0.16260026 -0.031336524 -0.23025015 -0.19756678 0.14701906 0.042286612
-0.05723802 -0.14393207 -0.016835677 0.078557506 -0.06155558 -0.11119319 0.011404294 0.07551952
0.039877646 0.11873898 0.010532507 0.06489292 -0.0788008 0.20355366 0.020065514 0.07593651
0.044099797 -0.028255334 0.14473103 0.008558746 -0.028086562 -0.05721385 -0.16037431 0.12089111
-0.07414126 -0.11836669 -0.23657203 -0.03575157 0.060156222 -0.10695642 -0.18139523 -0.12854663
-0.10884563 0.026636252 0.052980274 0.03497522 -0.14870574 0.06051273 0.061552756 -0.054152314
0.23911497 0.10311219 -0.038272854 -0.15663534 -0.2784456 -0.12734625 -0.040748846 0.008904899
-0.07680682 -0.13735038 -0.18457018 0.079963036 -0.085670754 0.14703876 0.09328031 -0.044697955
-0.020649875 -0.0911663 -0.1491051 -0.018759547 0.08021438 -0.20382418 -0.038681258 0.05326239
00000000: 1b91 173b 1814 4a3d fe91 913d e345 abbc
00000010: f6ff 96bd 1b36 c23c 0290 01bd cf52 a83d
00000020: b880 ed3d b584 953c e1d5 b93d 6316 18be
00000030: a145 b0bd 01ad db3d 2c23 243d 73df ef3d
00000040: 2125 1c3d 2f2c a3bc 83af f8bd bbf8 093d
00000050: ebd6 843d a295 9d3d 7432 b0bd 9fe8 24be
00000060: e11a 81be e11d d93d ec3f a33d 82a7 2a3e
00000070: d03e 633d 7896 e43b c3b8 b3bd 5bf2 d9bd
00000080: 4e19 ed3d caf7 803e 9d06 6c3d 82dd a9bb
00000090: aeb5 d4bd 8ae5 47bd 9daa 4c3e fc1b 453e
000000a0: e4e7 47bd 65e0 1bbe f0fd 7abe 2987 e3bc
000000b0: e27e b93d 983d 3cbd de45 39bd d5e4 5bbe
000000c0: c828 67be 1eaf 89bd 6966 33bc 589e 323e
000000d0: 8a2d 403e 2b2b 333e 6c1d b13d 0736 08be
000000e0: 24ef 753d b5b5 e23d 4c80 5b3e 0b7b 1d3b
000000f0: a6a7 e6bd b737 0dbe c9fb c13c e315 343e
00000100: d70b 453e f097 c3bd 3bee fbbd 6d09 33be
00000110: 846a 8fbc f28e 4e3d d449 97bd c98f b0bd
00000120: 940c 3fbe a925 48be fa47 04bc 00ec 69bd
00000130: e00c d8bd ad35 afbd f60a 1dbe 6b51 43be
00000140: a219 10be a315 82bd f25c 1fbe 0c50 e9bd
00000150: 19f7 69be d319 dcbd 6b03 0dbe 5d4c 24bd
00000160: f298 a0bd 3442 9fbd 7a9c 21be ab24 14bd
00000170: dec2 acbd c0dc 07be 6637 8abe 3a2a 94ba
00000180: 9190 86bd 77a6 46be 5963 63be e616 6cbe
00000190: b66a 103e de1f 9a3d 4d3c e03d 3eb0 62bd
000001a0: 59fe bf3d a49f 113c 75e7 e83d 6b52 d83d
000001b0: 4f71 e73c 78ee 5cba 77d6 b63c 97ce 133e
000001c0: c5b8 e53b 536a 983d ebc7 0b3d 90d6 ba3c
000001d0: 0541 3ebd 1e7b 213c 1e83 893d 3460 c13d
000001e0: 344a a03d 32c3 71bd aa54 423b 405c 5e3d
000001f0: a529 c23d 026c b4bc 9bbf 15bd b87f f43d
00000200: 7321 173b 23cf 3dbd 78de 4d3d 6dfc dd3d
00000210: 003d 873c e0c7 4a3d e00d 0c3c 3b2a 533e
00000220: 82fb 843d e627 883d 0188 1b3e be10 d33d
00000230: 3ed1 3a3e 8a8d 133e 2751 7a3e ff06 143e
00000240: 3ddf 263e 546a 21bc 53c8 233e fd74 cf3d
00000250: fb76 4d3e 566e e8bc 5b07 dc3d c164 643e
00000260: 289e c43d a796 833c 0038 afbd 99c3 533e
00000270: 90a9 ce3d d4d4 c4ba b764 9abd 7ead d9bd
00000280: 2766 7d3e cce9 b93d 42f4 0abd d6b2 22be
00000290: 0e66 39bd 8d05 423e 8dfe 1b3d 7b4a a73c
000002a0: 1755 2abe 6cad 2bbe 36b9 563d bed6 70bd
000002b0: fe27 f7bd 9ea8 d0bd 6ae1 10bd 5a05 233e
000002c0: 4722 1d3e 55c9 2c3d 8b4b 763d 293c ddbd
000002d0: ad5a 513c 4987 babc e0c6 d03d 9a97 9bbd
000002e0: c2f7 1fbe 22ba c53d af80 263e ba5a 00bd
000002f0: b2c6 6bbe f24e 4abe 2a8c 163e ba34 2d3d
00000300: 6a72 6abd ee62 13be f9ea 89bc c2e2 a03d
00000310: b421 7cbd 41b9 e3bd 13d9 3a3c faa9 9a3d
00000320: be56 233d 6c2d f33d 8990 2c3c 94e6 843d
00000330: 5062 a1bd 5f70 503e 6f60 a43c 9a84 9b3d
00000340: fda1 343d bb77 e7bc 5f34 143e fc39 0c3c
00000350: ca15 e6bc 1259 6abd 2a39 24be c295 f73d
00000360: 5fd7 97bd 3c6a f2bd f03f 72be 3d70 12bd
00000370: 5f66 763d f80b dbbd acbf 39be baa1 03be
00000380: 75ea debd 4534 da3c d801 593d 2d42 0f3d
00000390: 5146 18be 32dc 773d be1e 7c3d d1ce 5dbd
000003a0: 8eda 743e 7c2c d33d ffc3 1cbd 0465 20be
000003b0: 6c90 8ebe 0e67 02be 43e8 26bd dae5 113c
000003c0: e54c 9dbd 94a5 0cbe f7ff 3cbe a9c3 a33d
000003d0: 2674 afbd 5491 163e bf09 bf3d 3415 37bd
000003e0: ed29 a9bc 66b5 babd 02af 18be 9fad 99bc
000003f0: 7047 a43d 49b7 50be 3d70 1ebd aa29 5a3d

first_layer.0.bias f4 [32]
7.360199e-07 -3.0728565e-06 9.022158e-06 1.40067e-05 4.8492693e-06 -1.8776628e-06 -1.5057438e-05 3.328311e-06
3.7070963e-06 -2.3791815e-06 7.116814e-06 1.2609174e-06 4.6859918e-07 -2.9504229e-06 7.600357e-07 5.9648374e-07
-2.5042032e-06 -3.6063136e-06 -4.0283962e-06 2.469511e-07 9.2210985e-07 8.984154e-06 -1.2665912e-05 1.2578676e-05
3.1803484e-06 4.9109585e-06 7.2184484e-06 8.99572e-08 -1.0516338e-06 4.8518355e-06 -3.3783604e-06 -2.2090508e-06
00000000: e792 4535 4637 4eb6 e05d 1737 52fe 6a37
00000010: e8b6 a236 0104 fcb5 349f 7cb7 f35b 5f36
00000020: 6ec7 7836 07aa 1fb6 f7cc ee36 cb3c a935
00000030: c893 fb34 e1ff 45b6 4105 4c35 0d1e 2035
00000040: e20d 28b6 ff03 72b6 a92b 87b6 b394 8434
00000050: e886 7735 a6ba 1637 ae7f 54b7 0109 5337
00000060: f86d 5536 d0c8 a436 0036 f236 7e2e c133
00000070: dd25 8db5 f3cc a236 cab7 62b6 343f 14b6

first_layer.1.weight f4 [32]
1.1856009 0.98784065 1.033084 1.1068703 0.9754294 0.9544678 1.045126 0.94674164
0.9402053 1.1224122 0.91542 0.83577037 0.98985 1.0692012 0.9189995 0.8852276
0.93752146 1.0690595 1.0950013 0.83225083 0.8691785 1.1069432 0.7411699 0.92491364
1.0291682 1.0383149 0.95462865 0.9563265 0.83377707 0.85915613 1.0018921 0.90558016
00000000: c5c1 973f 20e3 7c3f 193c 843f edad 8d3f
00000010: beb5 793f 0058 743f b0c6 853f a95d 723f
00000020: 4bb1 703f 34ab 8f3f f758 6a3f 0cf5 553f
00000030: cf66 7d3f 96db 883f 8d43 6b3f 479e 623f
00000040: 6801 703f f1d6 883f 0129 8c3f 640e 553f
00000050: 7b82 5e3f 51b0 8d3f 50bd 3d3f 24c7 6c3f
00000060: c9bb 833f 81e7 843f 8b62 743f d0d1 743f
00000070: 6a72 553f a8f1 5b3f 003e 803f 1ad4 673f

first_layer.1.bias f4 [32]
0.1077753 0.13878612 0.21822594 0.12711324 0.09530111 -0.10611224 0.08050653 0.04272628
0.30210188 -0.10917961 0.26359066 -0.09950081 -0.038966622 -0.099853724 0.10383506 -0.10779545
0.0695167 0.31733936 -0.22627996 0.03691471 -0.265221 0.040156458 0.08239604 0.08425342
0.33435717 -0.015540092 0.1696388 -0.15749279 -0.10974105 -0.059774872 -0.18380922 -0.19744118
00000000: 4cb9 dc3d f31d 0e3e 9f76 5f3e f929 023e
00000010: 3a2d c33d 6051 d9bd 9ce0 a43d c001 2f3d
00000020: 19ad 9a3e 8f99 dfbd 5bf5 863e 15c7 cbbd
00000030: 779b 1fbd 1c80 ccbd 7aa7 d43d dcc3 dcbd
00000040: c65e 8e3d 4e7a a23e efb5 67be e133 173d
00000050: 0ccb 87be 197b 243d 41bf a83d 0f8d ac3d
00000060: dd30 ab3e df9b 7ebc cbb5 2d3e ca45 21be
00000070: eabf e0bd 7fd6 74bd 7c38 3cbe 052e 4abe

first_layer.1.running_mean f4 [32]
-0.035834156 -0.07067461 -0.09297219 -0.19699734 -0.27718621 -1.1813456 0.008021094 -1.0566641
-0.053887397 -0.5329316 0.13431723 0.58164406 -0.625662 -0.018025326 0.057988934 0.8467903
-0.69420284 -0.10586642 -0.98652375 1.1633157 -0.6313143 -0.04293713 -0.005363812 -0.008975678
0.093280315 -0.009004289 0.03914626 -0.79336613 0.7080612 -0.10391485 0.62324315 0.77753127
00000000: d6c6 12bd dabd 90bd 3468 bebd acb9 49be
00000010: 5aeb 8dbe 5536 97bf e86a 033c c540 87bf
00000020: 08b9 5cbd 356e 08bf 758a 093e a0e6 143f
00000030: 632b 20bf d9a9 93bc ce85 6d3d 40c7 583f
00000040: 47b7 31bf 7ed0 d8bd d28c 7cbf 87e7 943f
00000050: d09d 21bf d8de 2fbd ebc2 afbb b90e 13bc
00000060: c009 bf3d ba86 13bc d457 203d 0b1a 4bbf
00000070: 8043 353f 4fd1 d4bd dd8c 1f3f 4a0c 473f

first_layer.1.running_var f4 [32]
0.050468132 0.13848113 0.08971374 0.019814841 0.110129006 0.507536 0.043383025 0.4250885
0.04172388 0.13923207 0.02248757 0.19305871 0.15146157 0.077277094 0.07575931 0.43912202
0.26502335 0.0343739 0.5539131 0.4594801 0.1490609 0.0141890375 0.015917338 0.017127467
0.083724506 0.021995047 0.09404804 0.2686114 0.24090731 0.028321713 0.14281519 0.27349126
00000000: acb7 4e3d ffcd 0d3e d6bb b73d bc52 a23c
00000010: 518b e13d e1ed 013f 66b2 313d 33a5 d93e
00000020: a9e6 2a3d da92 0e3e da37 b83c 2fb1 453e
00000030: be18 1b3e 7443 9e3d b227 9b3d 9ad4 e03e
00000040: 24b1 873e a6cb 0c3d 40cd 0d3f fa40 eb3e
00000050: 6ca3 183e 2379 683c 1465 823c e74e 8c3c
00000060: c177 ab3d f52e b43c 429c c03d 6f87 893e
00000070: 68b0 763e f002 e83c 253e 123e 0c07 8c3e

adjustment1.0.weight f4 [64, 32, 1, 1]
-0.23886468 -0.042233817 -0.10184531 0.27217332 -0.04003348 0.1372572 -0.18854927 -0.017909642
0.027611168 -0.16650587 -0.044845488 -0.34936795 -0.028488578 0.19491026 0.09270896 -0.004087354
-0.023916591 -0.020364117 -0.002984199 -0.231102 0.14801754 0.07086724 -0.13292652 0.089564085
-0.18469779 0.16937616 -0.18839762 -0.03091738 0.251258 -0.09241616 -0.07242671 -0.19953215
0.09023784 -0.124856316 -0.21740717 0.1493093 0.022692565 -0.16625147 -0.027782599 -0.17238976
-0.21712133 -0.18896665 0.16228308 -0.052683763 0.0811997 0.2318532 -0.2717518 -0.057439536
-0.039647155 0.23982424 0.009763916 -0.05445777 0.1472171 0.07678299 0.10524465 0.12696236
-0.26740894 -0.13825691 -0.01924389 0.08157379 -0.10899023 0.011799286 0.19059375 -0.11004106
-0.17731385 -0.01426626 0.1628207 -0.20459619 0.27426547 -0.15668248 -0.050618168 0.05537878
-0.112404935 0.0055894074 0.17257151 -0.078969285 -0.08781525 0.12817396 0.016605927 0.10222811
0.22323538 0.0077958917 -0.09757461 0.2056922 0.15697318 0.036718883 -0.09851259 -0.3251918
0.21211642 -0.07495893 -0.0865963 -0.035120644 -0.12272868 0.10814814 -0.13496901 -0.015424228
-0.080156356 -0.03382867 0.17085868 0.025746597 -0.013436006 -0.08901092 0.2801496 -0.19051228
0.048906915 0.036438987 -0.044121154 0.1569188 0.19539559 0.01937208 -0.13941759 0.2103252
-0.04971833 -0.107457176 -0.25273544 -0.042282052 -0.015130581 0.074951015 -0.04528951 -0.105936706
-0.29965413 0.054775804 0.016857732 -0.32778755 0.13272907 -0.02731393 0.2107086 0.1393368
0.20255554 0.08349514 0.1964506 0.26496726 -0.12655728 0.26249382 0.15112479 0.09351577
-0.049705725 0.19175532 0.0038518994 -0.2729571 0.31223297 -0.17196147 -0.15724008 -0.07656692
0.103697866 -0.023744073 -0.1643213 -0.1384776 -0.08776236 -0.08707943 0.011773462 0.1430114
-0.10871069 -0.023935294 -0.09212434 0.20036745 0.0008755342 -0.050704293 -0.17842427 -0.01011394
0.033501823 -0.007890402 -0.22500679 0.10395823 0.06531137 0.219199 0.23536484 0.10952995
-0.1655036 -0.06426635 0.12507601 0.117861606 0.16282307 -0.36951193 -0.11071205 0.017252758
0.15106572 -0.036631167 -0.07011232 -0.24204524 -0.15635616 0.1211195 0.09436628 -0.21806917
-0.13118936 -0.15867715 -0.07649394 0.08592365 0.13615346 -0.056750067 -0.07228267 0.11537484
-0.2113045 0.17760517 0.1842848 0.012747895 0.058840565 -0.07113838 -0.0047212513 0.082683556
0.29044577 -0.05028708 -0.1691205 -0.09245226 0.11159645 0.024761546 -0.12189669 0.20518887
-0.2151555 -0.019568909 -0.15464033 -0.027343301 0.03366642 -0.105710655 0.08717333 -0.06451584
-0.13525134 0.041342564 0.16586152 0.14935751 0.18704605 0.07741341 0.08848062 0.16717018
-0.20876195 -0.070102245 -0.019469637 0.10407431 -0.113030836 -0.2700055 -0.17125428 -0.18281518
0.015626369 -0.19824444 -0.124736756 0.033459153 -0.073255025 0.18774691 -0.029260218 0.09338038
0.0911293 -0.05170228 -0.06610057 0.20917957 -0.039725665 0.031718697 -0.16451812 0.0061215027
0.13413785 0.30173323 -0.24349384 0.0810083 0.004724994 -0.027956747 0.25402644 0.0057656583
00000000: f198 74be 5efd 2cbd 4694 d0bd 4d5a 8b3e
00000010: 25fa 23bd 278d 0c3e 0f13 41be 3eb7 92bc
00000020: d130 e23c 8480 2abe e7af 37bd 5be0 b2be
00000030: e160 e9bc 8e96 473e 32de bd3d 36ef 85bb
00000040: baec c3bc a6d2 a6bc 8d92 43bb 01a6 6cbe
00000050: e991 173e d822 913d e41d 08be 606d b73d
00000060: 6b21 3dbe f270 2d3e 4eeb 40be 7246 fdbc
00000070: e3a4 803e af44 bdbd 7454 94bd 2852 4cbe
00000080: 9ece b83d abb4 ffbd fc9f 5ebe 8ae4 183e
00000090: c2e5 b93c d33d 2abe 5598 e3bc f186 30be
000000a0: 0e55 5ebe 7980 41be 892d 263e eeca 57bd
000000b0: 074c a63d ed6a 6d3e 0d23 8bbe b845 6bbd
000000c0: 0e65 22bd 7c94 753e d5f8 1f3c 1c0f 5fbd
000000d0: 14c0 163e 6640 9d3d 828a d73d 6c02 023e
000000e0: d3e9 88be 3893 0dbe 5da5 9dbc 2910 a73d
000000f0: 4536 dfbd cb51 413c 022b 433e 355d e1bd
00000100: c391 35be 08bd 69bc 78ba 263e aa81 51be
00000110: 866c 8c3e 5f71 20be ff54 4fbd dcd4 623d
00000120: 8f34 e6bd 5927 b73b 96b6 303e a6ba a1bd
00000130: 7bd8 b3bd 0940 033e 2709 883c f95c d13d
00000140: d197 643e ae74 ff3b 32d5 c7bd faa0 523e
00000150: 94bd 203e 8a66 163d f8c0 c9bd 8a7f a6be
00000160: 0c35 593e 1184 99bd 6759 b1bd aada 0fbd
00000170: 2d59 fbbd c67c dd3d 5135 0abe e7b5 7cbc
00000180: 0429 a4bd ee8f 0abd 94f5 2e3e 87ea d23c
00000190: b222 5cbc 5b4b b6bd c56f 8f3e a715 43be
000001a0: 9e52 483d 0c41 153d 62b8 34bd 52af 203e
000001b0: c815 483e 32b2 9e3c 7cc3 0ebe 7d5f 573e
000001c0: 73a5 4bbd 8212 dcbd 8a66 81be f22f 2dbd
000001d0: 42e6 77bc eb7f 993d 7e81 39bd 58f5 d8bd
000001e0: 446c 99be 985c 603d 3a19 8a3c c5d3 a7be
000001f0: 21ea 073e 77c1 dfbc ffc3 573e 4eae 0e3e
00000200: b86a 4f3e 80ff aa3d 592a 493e caa9 873e
00000210: 3b98 01be 9765 863e 75c0 1a3e 3285 bf3d
00000220: 3b98 4bbd 825b 443e 2670 7c3b 08c1 8bbe
00000230: 00dd 9f3e ab16 30be 8b03 21be 1ecf 9cbd
00000240: 8c5f d43d ee82 c2bc d843 28be 12cd 0dbe
00000250: c1bc b3bd b356 b2bd 7be5 403c 9571 123e
00000260: b6a3 debd f313 c4bc b0ab bcbd 202d 4d3e
00000270: 1b84 653a 4eaf 4fbd dab4 36be f0b4 25bc
00000280: 3539 093d bf46 01bc 2e68 66be 0de8 d43d
00000290: f8c1 853d b475 603e 7b03 713e 3d51 e03d
000002a0: c779 29be 139e 83bd ed13 003e 6d61 f13d
000002b0: 17bb 263e ab30 bdbe 00bd e2bd a855 8d3c
000002c0: f9b0 1a3e 900a 16bd 0c97 8fbd b5da 77be
000002d0: d41b 20be 800d f83d 1c43 c13d 864d 5fbe
000002e0: 8156 06be 437c 22be dba8 9cbd bdf8 af3d
000002f0: d06b 0b3e c272 68bd f008 94bd a549 ec3d
00000300: 3560 58be 21de 353e 28b5 3c3e 8cdc 503c
00000310: ce02 713d 00b1 91bd bab4 9abb ff55 a93d
00000320: 4fb5 943e d3f9 4dbd ed2d 2dbe 9c57 bdbd
00000330: ae8c e43d bad8 ca3c f9a4 f9bd 081d 523e
00000340: b951 5cbe fa4e a0bc 095a 1ebe 0fff dfbc
00000350: cde5 093d d47e d8bd ee87 b23d e120 84bd
00000360: 547f 0abe d256 293d 9ad7 293e 2df1 183e
00000370: 0089 3f3e ec8a 9e3d 5435 b53d a92e 2b3e
00000380: b1c5 55be c491 8fbd ca7e 9fbc e924 d53d
00000390: b67c e7bd 293e 8abe 485d 2fbe e733 3bbe
000003a0: df02 803c 9700 4bbe fc75 ffbd 770c 093d
000003b0: bb06 96bd ba40 403e 20b3 efbc 363e bf3d
000003c0: 00a2 ba3d c5c5 53bd bc5f 87bd 2b33 563e
000003d0: 61b7 22bd 77eb 013d 7077 28be e396 c83b
000003e0: 6f5b 093e c77c 9a3e 7356 79be aee7 a53d
000003f0: 1fd4 9a3b 8c05 e5bc c10f 823e d9ed bc3b

adjustment1.0.bias f4 [64]
-3.3544887e-07 -3.154056e-07 -5.087689e-07 -3.720492e-07 7.704451e-07 -9.618462e-07 1.6531858e-07 -2.7386736e-07
7.846284e-07 1.4025927e-07 -9.730079e-07 3.2000304e-07 1.0440456e-06 -3.494444e-07 -3.0333388e-07 -1.0127997e-06
3.1118537e-07 8.71352e-07 4.3071842e-07 4.157954e-08 1.3173974e-07 7.443093e-07 -1.3551535e-07 -8.927284e-07
1.0428919e-07 -2.6166404e-07 -5.701558e-07 2.670817e-07 6.324364e-07 5.4730504e-07 9.3407397e-07 1.0879208e-07
8.736216e-07 6.277426e-07 6.0019534e-07 -1.0454967e-06 -4.47041e-07 -3.8319152e-07 -2.1063964e-07 3.6187018e-07
-1.026564e-06 6.9301e-07 2.8188748e-07 4.8347044e-07 -3.128492e-07 5.6133075e-07 -1.4611941e-06 -6.7589065e-07
-9.031279e-07 -4.7551092e-07 -4.3903742e-07 6.817233e-07 -6.6265227e-07 3.8708737e-07 -1.9893398e-07 2.4273334e-07
4.202738e-07 1.4202842e-06 4.363188e-07 -4.1768993e-07 6.413658e-07 -5.782322e-07 -8.152906e-08 -3.181508e-07
00000000: be17 b4b4 0455 a9b4 5592 08b5 0dbe c7b4
00000010: 96d0 4e35 c918 81b5 6d82 3134 0b08 93b4
00000020: 419f 5235 2d9a 1634 4c98 82b5 e2cc ab34
00000030: 2221 8c35 469b bbb4 e4d9 a2b4 88ef 87b5
00000040: fe10 a734 dae6 6935 7d3d e734 3095 3233
00000050: 5874 0d34 8ccc 4735 2d82 11b4 d4a3 6fb5
00000060: 97f5 df33 d57a 8cb4 cf0c 19b5 6e63 8f34
00000070: b3c4 2935 84ea 1235 13bd 7a35 14a1 e933
00000080: d282 6a35 2582 2835 1c1d 2135 fe52 8cb5
00000090: d900 f0b4 71b9 cdb4 2f2c 62b4 0f47 c234
000000a0: 78c8 89b5 4907 3a35 5256 9734 d6c7 0135
000000b0: abf5 a7b4 5bae 1635 3f1e c4b5 da6e 35b5
000000c0: 7a6e 72b5 b949 ffb4 d8b4 ebb4 abff 3635
000000d0: 1ee1 31b5 e2d0 cf34 8e9a 55b4 0451 8234
000000e0: fea1 e134 98a0 be35 333f ea34 de3e e0b4
000000f0: 522a 2c35 d037 1bb5 1315 afb3 50ce aab4

adjustment1.1.weight f4 [64]
1.0613188 0.9433083 0.8120574 0.8891209 0.9288099 1.0544499 0.8826159 1.0798104
1.0587975 1.0328075 1.2017088 1.1938179 1.110744 1.0661002 0.80660546 0.9534107
0.9615189 0.9121847 1.1708227 0.97935027 1.0044268 0.98729557 0.8396007 1.0406958
0.98645556 0.8872785 0.92800915 0.9379922 1.1399926 1.0400581 0.8951537 1.0665394
0.9406003 0.90924263 0.83695185 1.1310834 0.89894587 0.87348866 0.7330233 0.87856674
0.98854715 1.0734957 1.0936021 0.9340763 1.1422578 1.0417601 0.9713158 0.9320828
1.1799197 0.93601584 0.94828016 0.9504528 1.0391005 0.81756485 0.98689264 0.75253993
0.9939441 0.90589726 1.0545652 1.1083237 1.0530416 0.9750868 0.90304625 0.8652428
00000000: 4bd9 873f a77c 713f fee2 4f3f 6d9d 633f
00000010: 7cc6 6d3f 37f8 863f 1ef3 613f 3a37 8a3f
00000020: ad86 873f 0933 843f 98d1 993f 06cf 983f
00000030: dc2c 8e3f f975 883f b27d 4e3f b912 743f
00000040: 1a26 763f f084 693f 85dd 953f b3b6 7a3f
00000050: 0f91 803f 67bf 7c3f 12f0 563f 8535 853f
00000060: 5a88 7c3f af24 633f 0292 6d3f 4220 703f
00000070: 47eb 913f a020 853f cb28 653f 5d84 883f
00000080: 2ecb 703f 20c4 683f 7a42 563f 57c7 903f
00000090: 5121 663f f49c 5f3f 6aa7 3b3f c0e9 603f
000000a0: 6d11 7d3f 4f68 893f 27fb 8b3f a01f 6f3f
000000b0: 8135 923f 6558 853f 27a8 783f fa9c 6e3f
000000c0: 9c07 973f bc9e 6f3f 7dc2 723f e050 733f
000000d0: 3f01 853f ee4b 513f ffa4 7c3f 75a6 403f
000000e0: 1f73 7e3f e2e8 673f fefb 863f 8ddd 8d3f
000000f0: 11ca 863f 4a9f 793f 0a2e 673f 8d80 5d3f

adjustment1.1.bias f4 [64]
-0.088504866 -0.0746906 -0.19741662 -0.19974332 -0.16725394 -0.0477872 0.14179434 0.027207179
-0.059689794 -0.032662544 -0.053282432 0.029781697 -0.10708848 -0.07118032 -0.15669811 -0.04912522
-0.1368796 -0.08739428 -0.082308955 -0.22932047 -0.035401892 -0.021086946 -0.18011753 -0.12828514
-0.13312812 -0.15884958 -0.05760313 -0.22029024 -0.19528724 -0.042640693 0.0480204 -0.15320861
-0.13466169 -0.10359464 -0.19816624 -0.017895767 -0.118850164 -0.05591354 -0.2563813 -0.091768175
-0.065911986 -0.03502273 0.076430134 -0.1172758 -0.026163783 -0.092959516 -0.08258245 -0.036930744
-0.043364067 -0.21275514 -0.17286922 0.032738004 -0.016131015 0.044026423 -0.2367467 -0.14633888
0.09620597 -0.038488958 -0.019309454 -0.021643868 -0.15030952 -0.06919022 -0.054232493 -0.14316626
00000000: 0a42 b5bd 63f7 98bd 9527 4abe 8389 4cbe
00000010: 9e44 2bbe 83bc 43bd 8932 113e 97e1 de3c
00000020: 497d 74bd 29c9 05bd ae3e 5abd bff8 f33c
00000030: 3451 dbbd fdc6 91bd 7875 20be 8737 49bd
00000040: 2a2a 0cbe c6fb b2bd 9991 a8bd fcd2 6abe
00000050: 9301 11bd 88be acbc bb70 38be 2e5d 03be
00000060: bd52 08be 77a9 22be 42f1 6bbd c493 61be
00000070: 61f9 47be 02a8 2ebd 0ab1 443d b8e2 1cbe
00000080: c1e4 09be 6d29 d4bd 17ec 4abe 259a 92bc
00000090: b767 f3bd 9905 65bd 6944 83be f4f0 bbbd
000000a0: ddfc 86bd fe73 0fbd 6787 9c3d 4b2e f0bd
000000b0: 6e55 d6bc 8f61 bebd fd20 a9bd b144 17bd
000000c0: 859e 31bd 7cdc 59be a104 31be 4918 063d
000000d0: 3125 84bc 0d55 343d ba6d 72be dcd9 15be
000000e0: a307 c53d 99a6 1dbd dc2e 9ebc 7b4e b1bc
000000f0: bdea 19be 9ab3 8dbd e422 5ebd 2d9a 12be

adjustment1.1.running_mean f4 [64]
-0.4951064 -0.17835547 -0.013847425 -0.14994916 0.33514413 -0.2058315 0.22320658 -0.3198958
0.013229234 -0.55576295 -0.8696219 -1.7162238 0.14418173 -1.4608159 0.06774619 -0.033595193
-0.077840425 -0.13631026 -0.9576177 0.57884425 -0.91754645 -0.11584317 -0.06611527 -0.42545727
0.16801602 0.35903808 -0.60828084 -0.13056003 -0.72927195 -0.2745499 -0.18924516 0.42576274
0.11098418 0.1717422 0.3343168 -0.80804974 -0.7017299 -0.7129164 0.30583832 0.87120503
-0.26113695 -0.7173219 -0.6372749 0.114381604 -1.1855326 -0.923625 -0.23686638 0.32729647
-0.82120955 -0.6187378 -0.4746295 -0.9986678 -0.6109528 -0.46904185 0.6520453 -0.27397075
0.5118794 -0.39056268 -0.44240823 -0.23599552 -0.4991823 0.036627077 0.4085776 -0.3370671
00000000: 967e fdbe d1a2 36be 4fe0 62bc 468c 19be
00000010: 0398 ab3e 7ec5 52be 4490 643e 62c9 a3be
00000020: 6ebf 583c 7b46 0ebf 8a9f 5ebf 39ad dbbf
00000030: 60a4 133e 04fc babf 84be 8a3d 1d9b 09bd
00000040: cd6a 9fbd eb94 0bbe 6f26 75bf 232f 143f
00000050: 53e4 6abf 2f3f edbd 7167 87bd 89d5 d9be
00000060: 640c 2c3e d7d3 b73e 4bb8 1bbf 87b1 05be
00000070: 91b1 3abf ce91 8cbe 7cc9 41be 93fd d93e
00000080: ac4b e33d 30dd 2f3e 922b ab3e 59dc 4ebf
00000090: 92a4 33bf b081 36bf d796 9c3e 4b07 5f3f
000000a0: beb3 85be 68a2 37bf 7324 23bf e740 ea3d
000000b0: 88bf 97bf b072 6cbf 1a8d 72be 6793 a73e
000000c0: ca3a 52bf 9a65 1ebf a302 f3be b1a8 7fbf
000000d0: 6767 1cbf 4126 f0be 71ec 263f e545 8cbe
000000e0: 870a 033f d5f7 c7be 5583 e2be cfa8 71be
000000f0: d394 ffbe 4606 163d 1531 d13e 0f94 acbe

adjustment1.1.running_var f4 [64]
0.43117258 0.6845412 0.47874027 0.5292854 1.1864092 0.46862745 0.35857382 0.54241866
0.72261554 0.7667653 1.1296804 1.9447737 0.3714056 1.2601992 0.5070815 0.50819314
0.79674697 0.388238 0.6662535 0.43790802 1.0239433 0.6214441 1.1566579 0.37658697
0.37215817 0.6933486 0.5683515 0.5174535 0.6493998 0.89844817 0.57588035 0.4046481
0.5377896 0.7359023 0.535757 0.825613 0.892892 0.49756235 0.47272387 0.9686269
0.37991443 0.546276 1.1859553 0.41255823 1.042953 0.89968026 0.47008482 0.4777196
0.7058108 0.62533116 0.50078183 1.0441737 0.45915312 0.62818944 0.6923586 0.6074004
0.7935589 0.5486027 0.7011051 0.75076115 0.43201867 0.26829648 0.7251459 0.5355576
00000000: a7c2 dc3e 183e 2f3f 721d f53e 3f7f 073f
00000010: 42dc 973f f0ef ef3e fd96 b73e f3db 0a3f
00000020: 55fd 383f bb4a 443f 5e99 903f 58ee f83f
00000030: e028 be3e 354e a13f 18d0 013f f218 023f
00000040: 9cf7 4b3f 22c7 c63e 978f 2a3f 7b35 e03e
00000050: 9310 833f f616 1f3f 5e0d 943f 02d0 c03e
00000060: 848b be3e 4b7f 313f 7c7f 113f d577 043f
00000070: 113f 263f b300 663f e56c 133f 092e cf3e
00000080: 94ac 093f 1864 3c3f 5f27 093f 605b 533f
00000090: 9294 643f 7ec0 fe3e dd08 f23e eff7 773f
000000a0: 2584 c23e bed8 0b3f 62cd 973f d53a d33e
000000b0: 7c7f 853f 7251 663f f5ae f03e aa97 f43e
000000c0: 04b0 343f b415 203f 3d33 003f 7ca7 853f
000000d0: 1e16 eb3e 06d1 203f 6a3e 313f 987e 1b3f
000000e0: ad26 4b3f 3a71 0c3f a07b 333f e231 403f
000000f0: 8d31 dd3e 285e 893e 29a3 393f 4e1a 093f

block1.0.weight f4 [16, 32, 1, 1]
-0.08284528 0.08752055 -0.18911885 -0.0159982 0.07388125 -0.122972734 -0.1735869 0.16196597
-0.16404931 0.08344058 -0.062009472 0.1906015 -0.057949975 0.2760157 0.011008147 0.24454413
0.0056637567 0.09640841 0.16395809 0.07542357 0.15919028 -0.21823333 -0.049431443 -0.094348185
0.097239554 -0.19203065 0.1335344 -0.052061673 -0.060591493 -0.06634392 0.08565476 0.117716104
-0.0730619 0.15033597 -0.03856449 -0.089349106 -0.046906024 0.059580114 -0.20554066 -0.006988226
-0.22707443 -0.06858844 -0.028268449 0.02738513 0.058922686 -0.07723291 -0.12233594 0.10618881
-0.23004149 -0.0040532527 0.06169083 -0.12625249 -0.059661046 -0.25674152 -0.14703856 -0.34018126
-0.28490162 -0.21548125 0.022361567 -0.123408854 -0.044299293 -0.15018165 -0.23037848 0.09383056
-0.06296978 0.23682104 -0.21949013 0.21737711 0.21872193 0.09441488 0.032281406 0.20882621
-0.090902925 0.20330596 0.19193591 0.00670562 0.1875165 -0.1182862 -0.07439325 -0.1674145
-0.2610829 0.12981398 -0.29546094 -0.1812937 0.074386574 0.14306371 -0.0706415 0.035636947
0.06623995 0.01955916 0.04514943 0.33810133 0.095390245 0.16036667 -0.09989864 -0.01859132
0.0011765484 -0.14533886 0.16704066 -0.04993154 0.2050123 -0.10060024 -0.20420086 0.10523681
0.05675274 0.020188268 0.12299634 0.008977858 -0.14376505 -0.07263558 -0.046461575 0.018251028
0.18477504 -0.2658879 -0.05066332 -0.09313134 -0.23316072 -0.088098615 -0.17555983 0.04430888
0.2594965 0.077943005 -0.30810183 -0.07903518 -0.0022428378 0.04543088 0.2512787 0.028467957
-0.11705204 -0.23575298 -0.3601306 0.16672431 0.17054012 -0.003154838 -0.057105523 -0.10579442
-0.21583153 0.31189996 -0.047564797 0.08065403 -0.18879722 -0.17840038 0.07476307 -0.15080461
0.1728519 -0.10243558 -0.0021731823 -0.02209696 -0.111006 0.12955809 0.011244449 -0.14367892
-0.13496886 -0.013658144 0.0888604 -0.14624335 -0.037622374 0.025593646 0.026747122 0.09238945
-0.07638264 -0.0052380553 0.18230827 -0.039342493 0.07266282 0.13301486 -0.24342284 0.015287187
-0.014114316 0.011694245 -0.3690844 -0.028439363 0.16056451 0.11368861 -0.06283253 0.079086274
-0.047057018 -0.19350769 -0.19082046 -0.24050513 -0.07918032 -0.16852765 -0.06596033 -0.20271572
-0.033826556 0.039009187 0.048328023 0.23210219 -0.10845824 0.09267048 -0.023631096 -0.1855892
-0.26847687 0.16349699 0.034067802 0.013378043 0.1632779 0.09559186 -0.23473093 -0.03482708
0.072611265 -0.21445672 -0.021797488 0.23381902 0.056949925 -0.09042318 -0.091632895 -0.09024541
-0.2616056 0.04672333 -0.11966127 -0.062524185 0.007948921 -0.25685015 -0.112024315 -0.007829105
0.24962771 0.20956412 0.09583614 0.1677909 -0.1258377 0.12074932 0.056317594 -0.149333
-0.16319805 0.06743814 -0.21341223 0.35414538 -0.03722128 0.03428461 -0.07373729 -0.019176135
-0.16954708 -0.19916426 0.031807836 -0.091314726 0.028108578 0.17344534 0.26620135 -0.10479432
-0.041278142 0.274427 -0.099909246 0.03781534 0.24443655 -0.010894531 0.03779658 0.042423874
-0.019145057 -0.10737233 -0.08013574 0.102441184 0.078063786 0.01357001 0.032967772 -0.13195035
00000000: c9aa a9bd f93d b33d 5fa8 41be a80e 83bc
00000010: 0e4f 973d 21d9 fbbd c4c0 31be 68da 253e
00000020: 8bfc 27be e5e2 aa3d a5fd 7dbd 0a2d 433e
00000030: f45c 6dbd ee51 8d3e 845b 343c c769 7a3e
00000040: 0997 b93b c671 c53d a1e4 273e ac77 9a3d
00000050: c702 233e 8f78 5fbe a078 4abd 9f39 c1bd
00000060: 8825 c73d afa3 44be 3ebd 083e 9f3e 55bd
00000070: c92e 78bd 52df 87bd c36b af3d 2415 f13d
00000080: 7aa1 95bd acf1 193e ccf5 1dbd aafc b6bd
00000090: 8820 40bd 470a 743d 4079 52be 7dfd e4bb
000000a0: 3386 68be 1978 8cbd 3c93 e7bc c856 e03c
000000b0: ea58 713d 4a2c 9ebd 448b fabd 8579 d93d
000000c0: ff8f 6bbe 26d1 84bb 86af 7c3d 5548 01be
000000d0: 245f 74bd a073 83be 4791 16be 3d2c aebe
000000e0: a0de 91be 1ea7 5cbe 9b2f b73c c8bd fcbd
000000f0: 2d73 35bd 38c9 19be 56e8 6bbe 3d2a c03d
00000100: 4df6 80bd 3781 723e 05c2 60be 1b98 5e3e
00000110: a4f8 5f3e 975c c13d 8239 043d 8ad6 553e
00000120: 502b babd 702f 503e d98a 443e d1ba db3b
00000130: 5304 403e 0940 f2bd 7d5b 98bd b56e 2bbe
00000140: a8ac 85be f5ed 043e a846 97be 0ea5 39be
00000150: fd57 983d 4b7f 123e 7eac 90bd 0cf8 113d
00000160: d0a8 873d 883a a03c 9cee 383d 9e1b ad3e
00000170: f65b c33d 2937 243e a897 ccbd d34c 98bc
00000180: 6a36 9a3a b6d3 14be b50c 2b3e 0485 4cbd
00000190: bfee 513e 8007 cebd 081a 51be 6686 d73d
000001a0: 9075 683d de61 a53c 81e5 fb3d de17 133c
000001b0: 2537 13be f7c1 94bd 7e4e 3ebd 2e83 953c
000001c0: ab35 3d3e 7522 88be 5784 4fbd a5bb bebd
000001d0: afc1 6ebe 0c6d b4bd f5c5 33be 3a7d 353d
000001e0: badc 843e 95a0 9f3d 86bf 9dbe 32dd a1bd
000001f0: 93fc 12bb bb15 3a3d 9aa7 803e a235 e93c
00000200: fbb8 efbd 3b69 71be 0a63 b8be c7b9 2a3e
00000210: 12a2 2e3e 66c1 4ebb 7be7 69bd bfaa d8bd
00000220: f102 5dbe 5ab1 9f3e 4ed3 42bd f12d a53d
00000230: 0f54 41be 97ae 36be 611d 993d 866c 1abe
00000240: 1700 313e bfc9 d1bd f36b 0ebb af04 b5bc
00000250: 1d57 e3bd e0aa 043e a33a 383c 9120 13be
00000260: 4735 0abe 68c6 5fbc 71fc b53d d1c0 15be
00000270: eb19 1abd c4a9 d13c c81c db3c ae36 bd3d
00000280: 806e 9cbd fea3 abbb 05af 3a3e 9825 21bd
00000290: 3fd0 943d 0c35 083e d643 79be 1c77 7a3c
000002a0: bb3f 67bc 3899 3f3c a1f8 bcbe abf9 e8bc
000002b0: 066b 243e 93d5 e83d 57ae 80bd fcf7 a13d
000002c0: dcbe 40bd e126 46be 7066 43be fa46 76be
000002d0: 4b29 a2bd 8392 2cbe 3616 87bd b694 4fbe
000002e0: b78d 0abd 19c8 1f3d 9bf3 453d 32ac 6d3e
000002f0: 5b1f debd 05ca bd3d 0096 c1bc 180b 3ebe
00000300: cd75 89be c16b 273e ae8a 0b3d 942f 5b3c
00000310: 5232 273e aac5 c33d 4e5d 70be d7a6 0ebd
00000320: 37b5 943d 8b9a 5bbe a590 b2bc 416e 6f3e
00000330: 5344 693d ca2f b9bd 07aa bbbd 96d2 b8bd
00000340: 2bf1 85be f660 3f3d f810 f5bd ae0c 80bd
00000350: 313c 023c dd81 83be 016d e5bd a545 00bc
00000360: 689e 7f3e fa97 563e bd45 c43d 61d1 2b3e
00000370: 99db 00be 6b4b f73d 47ad 663d c0ea 18be
00000380: 641d 27be 021d 8a3d bc88 5abe 8b52 b53e
00000390: 5775 18bd 056e 0c3d 9403 97bd 4517 9dbc
000003a0: c09d 2dbe b7f1 4bbe ef48 023d 3703 bbbd
000003b0: f643 e63c a89b 313e 8b4b 883e 689e d6bd
000003c0: 4513 29bd b281 8c3e 389d ccbd 42e4 1a3d
000003d0: 934d 7a3e fa7e 32bc 96d0 1a3d a8c4 2d3d
000003e0: 18d6 9cbc 06e6 dbbd 351e a4bd afcc d13d
000003f0: e8df 9f3d bf54 5e3c 3709 073d fe1d 07be

block1.0.bias f4 [16]
-1.1348606e-06 -5.8337577e-07 -1.502963e-06 -1.3537768e-07 1.04097026e-07 -1.4997539e-07 -9.551939e-07 -1.9830937e-07
-1.9950646e-06 3.954839e-06 -5.363632e-07 -1.342099e-06 -1.0251252e-07 4.3695398e-08 5.754638e-07 -4.7305952e-07
00000000: 8351 98b5 4799 1cb5 6ab9 c9b5 555c 11b4
00000010: f28b df33 ec08 21b4 3634 80b5 ddee 54b4
00000020: f3e2 05b6 cfb3 8436 99fa 0fb5 2c22 b4b5
00000030: db24 dcb3 99ab 3b33 9279 1a35 cef8 fdb4

block1.1.weight f4 [16]
1.0159633 1.0634397 1.0332949 0.99412304 1.0368831 0.8980929 0.9982854 0.899915
0.9297707 0.9746266 1.0210373 1.0353811 0.9541519 0.93342084 1.0213385 1.060438
00000000: 160b 823f cb1e 883f 0243 843f d97e 7e3f
00000010: 96b8 843f 6be9 653f a28f 7f3f d460 663f
00000020: 7405 6e3f 2181 793f 5ab1 823f 5e87 843f
00000030: 4d43 743f abf4 6e3f 38bb 823f 6fbc 873f

block1.1.bias f4 [16]
-0.02705992 0.17168422 -0.07528202 0.036140747 0.20681648 -0.15579653 0.09899474 -0.20580377
0.11010225 0.06603854 -0.0065522213 0.08496301 -0.16137676 0.094879605 0.07417751 0.025125042
00000000: c4ac ddbc fdcd 2f3e 762d 9abd 5208 143d
00000010: b3c7 533e 2089 1fbe c1bd ca3d 39be 52be
00000020: 4a7d e13d 373f 873d 04b4 d6bb 1601 ae3d
00000030: f33f 25be 3d50 c23d 61ea 973d 08d3 cd3c

block1.1.running_mean f4 [16]
-0.013505938 -1.6918464 0.7079026 -0.18638146 -0.6106287 -0.8706774 -0.188065 0.20346731
0.35694933 -0.084073424 0.48894697 -0.60336316 -0.4891181 0.92950815 0.62412083 -0.99256444
00000000: 0348 5dbc 6c8e d8bf 1b39 353f c8da 3ebe
00000010: 2a52 1cbf b7e4 5ebf 1d94 40be bc59 503e
00000020: 10c2 b63e b02e acbd 4257 fa3e 0276 1abf
00000030: b06d fabe 3ff4 6d3f 62c6 1f3f b418 7ebf

block1.1.running_var f4 [16]
0.7415288 1.8191746 0.6694504 0.65438604 0.5382513 0.9678613 0.6045177 0.55094254
0.5853021 0.38768217 1.0220531 0.5976385 0.49530894 0.84157246 0.5085553 1.3597692
00000000: d5d4 3d3f b7da e83f 1a61 2b3f d885 273f
00000010: d6ca 093f c2c5 773f acc1 1a3f 920a 0d3f
00000020: 5cd6 153f 477e c63e a3d2 823f d6fe 183f
00000030: 2299 fd3e 4b71 573f ae30 023f eb0c ae3f

block1.3.weight f4 [16, 16, 3, 3]
0.25315243 0.08305816 0.13310847 0.17644899 0.1596294 0.26050526 0.084015064 -0.047916766
0.12614137 0.074380465 -0.13546267 -0.37032726 -0.1789518 0.026489595 -0.16335395 0.03662969
0.066844285 -0.13977759 0.09448377 -0.0674408 -0.101777054 0.047425956 -0.07202146 -0.1304959
-0.16688952 -0.08715482 -0.15348902 -0.0934931 0.11021917 -0.021030894 0.066389814 0.14967935
-0.09649616 -0.15294006 -0.1471476 -0.16397543 0.09024995 0.14083108 0.06689545 -0.12332399
0.01533662 0.05799769 -0.09996327 -0.07664484 -0.06564099 0.026181377 0.01950777 -0.03681726
-0.04315571 -0.031190736 -0.1318001 0.028685937 -0.002424793 -0.059997313 -0.015402072 -0.06022186
0.014701232 -0.00148574 -0.08685624 -0.10858663 -0.066960216 -0.1460892 -0.15333329 0.24144028
0.015751267 -0.011695628 0.124345295 0.031340655 0.009496096 0.101613104 -0.0014148287 0.10143994
-0.07922806 -0.16205297 -0.08122768 0.070012756 -0.047534566 -0.075981736 0.1596272 -0.036673445
0.036616426 -0.12710725 0.06476627 -0.0035545714 0.20758508 0.08794424 -0.010845791 -0.058825016
0.0607107 -0.06961461 -0.055852443 -0.1258192 0.22800748 -0.012104671 -0.06469914 0.12814295
0.06662031 -0.12568137 0.046501108 -0.03188399 0.014307182 0.09682425 -0.20167845 0.08336857
0.10334895 -0.054387793 0.04490238 0.041328263 -0.043557417 0.13084178 0.28465286 -0.15530072
0.21133988 0.240985 -0.027313054 0.06764565 -0.013791149 -0.06441518 -0.01409559 0.061825562
-0.14850886 -0.113751195 0.06412972 -0.040468268 -0.050460152 0.05081032 0.04072281 0.089178436
0.042719323 0.16970648 0.041067224 0.050233107 -0.101655245 -0.20627514 0.032596216 -0.06740888
-0.033920772 -0.009287503 -0.20560682 -0.03448195 -0.12305436 -0.2217579 -0.039439227 -0.01148746
0.013139089 -0.043046303 -0.052269105 -0.06858578 0.10804388 -0.10974456 0.03432802 0.2273252
0.1773029 -0.1367862 -0.023170281 0.01541364 0.051717125 0.07710496 0.08331203 0.037879646
0.090974584 0.003033564 -0.30052674 -0.1421267 0.1438133 -0.031599917 -0.055112854 0.16594042
0.017292032 0.08877637 0.059910443 0.11813642 -0.12701455 0.10305669 -0.030956592 -0.20894301
0.035217974 -0.20778903 -0.09751591 0.005188151 -0.10763137 0.10211096 0.09885293 0.13788089
0.21033081 0.025707599 0.047484748 0.11731816 0.20680358 -0.103871785 0.02975569 0.12788898
-0.09511944 0.06012621 0.1182054 -0.0967796 0.1027263 0.023001848 -0.22682862 -0.15562151
0.01835314 -0.0099362265 -0.16444445 0.052962746 0.02434718 -0.05446445 0.2207488 -0.16414921
0.05062154 0.12083622 -0.11572175 -0.052277423 -0.09452135 -0.03173807 0.06569216 0.03787232
-0.08884258 0.058086928 0.17871217 -0.015885342 -0.025460906 -0.07757927 0.12955904 0.070142195
0.036454972 -0.09906471 -0.08613262 -0.13715225 -0.038543902 -0.033640675 -0.09485338 -0.0055952985
-0.009986285 -0.13581254 -0.12245949 0.12524705 0.29192162 -0.02645547 0.03946844 -0.01777005
0.11551094 0.08733924 0.08392726 0.204275 0.018526008 -0.19204205 0.06901653 0.08574827
-0.014426995 -0.054889094 0.031658582 -0.037293658 0.078743696 0.13567454 -0.1362962 -0.18848635
00000000: 329d 813e 661a aa3d 964d 083e 0baf 343e
00000010: e475 233e f260 853e 1710 ac3d 5f44 44bd
00000020: 342b 013e c954 983d bab6 0abe 899b bdbe
00000030: 243f 37be b500 d93c 4246 27be 0409 163d
00000040: a8e5 883d db21 0fbe b580 c13d 671e 8abd
00000050: 7d70 d0bd b841 423d fd7f 93bd b8a0 05be
00000060: 16e5 2abe 3a7e b2bd 3a2c 1dbe 4f79 bfbd
00000070: 97ba e13d fb48 acbc 62f7 873d 8b45 193e
00000080: c79f c5bd 529c 1cbe dcad 16be 2de9 27be
00000090: f7d4 b83d 0636 103e 7b00 893d 4a91 fcbd
000000a0: 7246 7b3c fc8e 6d3d 8bb9 ccbd f8f7 9cbd
000000b0: c96e 86bd 547a d63c c2ce 9f3c b2cd 16bd
000000c0: 0bc4 30bd b783 ffbc 9bf6 06be c5fe ea3c
000000d0: 47e9 1ebb bebf 75bd f958 7cbc 32ab 76bd
000000e0: 70dd 703c 29bd c2ba afe1 b1bd ab62 debd
000000f0: 7022 89bd 6898 15be 6703 1dbe 1f3c 773e
00000100: cd08 813c 059f 3fbc bfa8 fe3d 0f5f 003d
00000110: 8395 1b3c 881a d03d c671 b9ba bebf cf3d
00000120: 5242 a2bd 37f1 25be b35a a6bd d962 8f3d
00000130: 9bb3 42bd 509c 9bbd 5075 233e e536 16bd
00000140: 1bfb 153d 6728 02be 2ea4 843d d0f3 68bb
00000150: 2f91 543e 1c1c b43d 8bb2 31bc 80f2 70bd
00000160: c8ab 783d 1b92 8ebd 88c5 64bd c0d6 00be
00000170: cb7a 693e ac52 46bc fc80 84bd e837 033e
00000180: 3b70 883d 9eb2 00be f277 3e3d c998 02bd
00000190: ac68 6a3c cb4b c63d cc84 4ebe 24bd aa3d
000001a0: 9da8 d33d bcc5 5ebd 8feb 373d d347 293d
000001b0: 4369 32bd 63fb 053e 05be 913e 2707 1fbe
000001c0: 7b69 583e c6c4 763e a0bf dfbc cd89 8a3d
000001d0: 45f4 61bc 1bec 83bd 31f1 66bc cd3c 7d3d
000001e0: b512 18be 63f6 e8bd 7156 833d 0ec2 25bd
000001f0: 4eaf 4ebd 7b1e 503d f6cc 263d 2fa3 b63d
00000200: 75fa 2e3d 89c7 2d3e 1b36 283d 3bc1 4d3d
00000210: a030 d0bd ca39 53be 9c83 053d ab0d 8abd
00000220: 82f0 0abd 9c2a 18bc 988a 52be f23c 0dbd
00000230: ed03 fcbd 8114 63be 078b 21bd e635 3cbc
00000240: 5545 573c 5251 30bd 2118 56bd b476 8cbd
00000250: 1c46 dd3d c2c1 e0bd 8a9b 0c3d f0c7 683e
00000260: e48e 353e ae11 0cbe 9acf bdbc 7e89 7c3c
00000270: 56d5 533d 35e9 9d3d 7f9f aa3d b027 1b3d
00000280: e250 ba3d c2ce 463b a4de 99be a989 11be
00000290: cb43 133e ea6e 01bd 04be 61bd 49ec 293e
000002a0: 05a8 8d3c 63d0 b53d a764 753d 82f1 f13d
000002b0: 1a10 02be 630f d33d ae98 fdbc 28f5 55be
000002c0: b940 103d a6c6 54be 6cb6 c7bd 5d01 aa3b
000002d0: d66d dcbd 8d1f d13d 6873 ca3d a630 0d3e
000002e0: f660 573e be98 d23c 5e7f 423d 8144 f03d
000002f0: 51c4 533e bbba d4bd 34c2 f33c 54f5 023e
00000300: fbcd c2bd e746 763d ac15 f23d 6234 c6bd
00000310: 2b62 d23d 5f6e bc3c c345 68be 3f5b 1fbe
00000320: 5359 963c 8ecb 22bc 2064 28be 77ef 583d
00000330: bd73 c73c 1d16 5fbd f90b 623e bb16 28be
00000340: 8858 4f3d fb78 f73d 86ff ecbd da20 56bd
00000350: 6994 c1bd c7ff 01bd 9c89 863d 0120 1b3d
00000360: 19f3 b5bd 8fec 6d3d 5300 373e fa21 82bc
00000370: 6493 d0bc e1e1 9ebd 20ab 043e b6a6 8f3d
00000380: cf51 153d 70e2 cabd 4d66 b0bd a471 0cbe
00000390: 36e0 1dbd ceca 09bd 7d42 c2bd c458 b7bb
000003a0: 849d 23bc 7112 0bbe 0bcc fabd c340 003e
000003b0: c076 953e 24b9 d8bc a9a9 213d 7f92 91bc
000003c0: 0091 ec3d eade b23d 0ee2 ab3d 772d 513e
000003d0: dbc3 973c aca6 44be 8a58 8d3d ca9c af3d
000003e0: 345f 6cbc 63d3 60bd 6eac 013d 3cc1 18bd
000003f0: 6044 a13d 44ee 0a3e 3b91 0bbe 9102 41be

block1.3.bias f4 [16]
-1.6325777e-07 -9.3578933e-07 -1.6708401e-07 -5.593212e-07 -7.186214e-07 5.576325e-07 9.942202e-08 3.194502e-07
-7.238836e-07 -1.8799471e-06 4.4525567e-07 8.108013e-07 -2.5994611e-06 6.246773e-07 1.5645204e-06 -5.459757e-07
00000000: f44b 2fb4 f432 7bb5 b467 33b4 4324 16b5
00000010: 49e7 40b5 37b0 1535 d581 d533 e780 ab34
00000020: e750 42b5 7e52 fcb5 790b ef34 d7a5 5935
00000030: 6772 2eb6 7faf 2735 83fc d135 2a8f 12b5

block1.4.weight f4 [16]
0.92386526 0.964247 1.0193826 1.0529226 1.0831088 1.0579906 0.9597264 1.0729948
0.9206993 1.1003864 0.9333676 0.94877696 0.9492735 0.98329204 0.953939 0.9241341
00000000: 6f82 6c3f e4d8 763f 217b 823f 2bc6 863f
00000010: 4fa3 8a3f 3c6c 873f a1b0 753f e557 893f
00000020: f3b2 6b3f 76d9 8c3f 2ef1 6e3f 0ce3 723f
00000030: 9703 733f 07b9 7b3f 5935 743f 0d94 6c3f

block1.4.bias f4 [16]
-0.1570791 -0.011417642 0.0053104814 -0.17928268 0.35417518 0.18018128 -0.05416565 0.047577467
-0.1026101 0.028903222 0.086957626 -0.058822576 0.011555021 -0.016441552 -0.03288034 -0.17629741
00000000: 58d9 20be 1011 3bbc 8c03 ae3b e195 37be
00000010: 7356 b53e 7181 383e cddc 5dbd 97e0 423d
00000020: 3e25 d2bd 73c6 ec3c d716 b23d f1ef 70bd
00000030: 4551 3d3c 6fb0 86bc 89ad 06bd 4f87 34be

block1.4.running_mean f4 [16]
-0.601382 0.5433372 -0.58736336 -0.66955894 -0.5774987 -1.0897886 -0.44822544 1.209312
0.45352548 -1.1305887 -0.80755335 0.89822906 -1.1198545 -1.7728187 0.08143341 0.9252032
00000000: 2cf4 19bf 2618 0b3f 725d 16bf 3768 2bbf
00000010: f4d6 13bf 317e 8bbf ce7d e5be bcca 9a3f
00000020: 7e34 e83e 21b7 90bf d1bb 4ebf 57f2 653f
00000030: 6457 8fbf b9eb e2bf 8fc6 a63d 1eda 6c3f

block1.4.running_var f4 [16]
1.4919076 1.25608 1.2693957 0.84230864 1.0460997 1.6259708 1.2251894 2.3390317
1.2525549 0.9280275 1.2989757 1.3884773 0.960341 1.4715173 0.6670308 0.7771991
00000000: d4f6 be3f 3bc7 a03f 8f7b a23f 8aa1 573f
00000010: 98e6 853f d01f d03f 02d3 9c3f b2b2 1540
00000020: b853 a03f 3693 6d3f d644 a63f a0b9 b13f
00000030: e8d8 753f ae5a bc3f 88c2 2a3f 85f6 463f

block1.6.weight f4 [64, 16, 1, 1]
0.14341468 -0.32984135 -0.18242781 -0.13639137 -0.06375823 -0.0019764085 0.08643726 0.213909
0.16054149 -0.16665344 -0.14968657 -0.26514265 -0.022472698 0.04179099 0.33499467 -0.020580262
0.17459215 -0.06485189 0.014411 0.08807037 0.26517758 -0.17544557 -0.21086144 -0.3177487
-0.15251808 -0.11872083 -0.2495432 0.18033786 -0.032273654 -0.114421315 0.0935152 0.09373822
0.04563867 0.026334383 -0.010307207 0.065178424 -0.38962755 -0.11528119 0.267793 0.06883686
0.01416283 -0.37182203 0.041635633 -0.06913176 0.27598646 -0.11157291 -0.017701175 -0.23301123
-0.17281106 -0.0067778 -0.019306393 0.22155924 -0.23533638 -0.23859318 -0.39365292 -0.1177768
0.1733469 0.3109682 -0.10139683 -0.11800388 -0.13439187 0.10201074 -0.03632661 0.07901876
-0.0017546564 -0.21687469 0.014525488 -0.30214304 0.12738447 -0.20695297 0.032261092 -0.009767367
-0.038720593 0.31378317 -0.040539138 -0.028413318 -0.359446 -0.106408484 -0.09958687 -0.15304586
-0.12451118 0.12753235 -0.16600652 -0.1754524 -0.17219071 -0.29756734 -0.028826008 0.17486857
0.11890345 0.28397 -0.23033592 0.123528175 -0.045810115 0.008586676 -0.22238314 -0.11621991
-0.29037887 0.14649403 -0.15109883 0.012134277 0.24632628 0.22948003 0.060483195 -0.25309524
-0.06918185 -0.01879173 0.1715369 -0.1820103 0.0045433394 0.14016189 -0.3522967 0.1444312
-0.26089218 0.058333747 -0.017388724 0.062493477 0.20646106 0.22176535 -0.09806091 -0.19609629
-0.21355677 0.029953297 -0.093810126 0.106857404 0.18336762 0.30295235 -0.0667091 0.20146441
0.2284529 -0.18926004 -0.15562105 -0.28769195 -0.11614507 -0.059205037 -0.30905327 -0.2208862
-0.08615962 0.06175632 0.19044352 -0.014121301 0.15989333 0.035556428 -0.23224506 -0.086956434
0.027475534 0.13314973 -0.099341005 0.111229606 0.40731427 0.19787344 -0.15144062 -0.087604165
0.093616314 0.16025533 -0.16750555 0.17354323 -0.25205094 -0.21204625 0.022568982 0.20426317
-0.11281111 -0.012110923 -0.031395297 -0.20337981 0.19994248 0.02890758 -0.26080117 -0.22957496
0.08597416 -0.10542905 -0.017003195 -0.37882265 -0.031802922 0.19438605 -0.074499704 -0.19749853
0.16202688 -0.1622975 0.20593843 0.17636538 -0.13624944 -0.2917155 -0.018944867 0.02314405
0.24123643 0.04063651 -0.024645876 0.15903877 0.148263 0.17454219 0.18363741 0.26323453
0.22182332 0.029264426 0.25978392 0.1611601 0.082580574 0.09926907 -0.12117801 -0.13554889
-0.27263615 0.3069174 0.04313661 -0.24661596 0.24908404 -0.22926748 -0.2942274 0.14763732
0.20400791 -0.12239747 -0.1394667 -0.048511427 -0.16559878 -0.21186982 0.4065248 0.024881082
-0.019125547 -0.017760746 0.12977129 -0.014730868 0.39578843 -0.08500884 0.042547666 -0.04977965
0.21967004 -0.10858447 -0.26792833 0.25460133 -0.072571486 0.0017614805 0.08385366 -0.14204782
-0.23576164 -0.031728562 0.13535552 -0.08598721 -0.15604456 0.16490328 -0.14586474 -0.19912799
0.25165865 0.22537106 -0.22330801 -0.23313169 0.08565616 0.2229189 -0.16155645 -0.32587466
0.17082915 0.18294507 -0.020682704 -0.091524586 -0.059538078 0.14242141 -0.20364575 0.1031763
00000000: 4cdb 123e f7e0 a8be 5bce 3abe 2eaa 0bbe
00000010: ad93 82bd a286 01bb 0506 b13d f60a 5b3e
00000020: fd64 243e 33a7 2abe 7047 19be c7c0 87be
00000030: aa18 b8bc 072d 2b3d 6c84 ab3e f097 a8bc
00000040: 49c8 323e 11d1 84bd 1d1c 6c3c 3d5e b43d
00000050: 5bc5 873e 01a8 33be 10ec 57be f5af a2be
00000060: b32d 1cbe e823 f3bd 4188 7fbe 7daa 383e
00000070: 6131 04bd b955 eabd e684 bf3d d3f9 bf3d
00000080: 9def 3a3d 34bb d73c 8fdf 28bc 447c 853d
00000090: 437d c7be 8b18 ecbd 2a1c 893e 57fa 8c3d
000000a0: 370b 683c 755f bebe 208a 2a3d f494 8dbd
000000b0: 194e 8d3e 5680 e4bd 0e02 91bc 7f9a 6ebe
000000c0: 62f5 30be 4f18 debb 7128 9ebc 6de0 623e
000000d0: 05fc 70be c551 74be e08c c9be f734 f1bd
000000e0: da81 313e 3937 9f3e 24a9 cfbd 05ac f1bd
000000f0: 069e 09be 02eb d03d 36cb 14bd 96d4 a13d
00000100: 80fc e5ba 6614 5ebe 50fc 6d3c 7eb2 9abe
00000110: 1371 023e 7beb 53be 3524 043d 4e07 20bc
00000120: 7c99 1ebd 30a8 a03e 5e0c 26bd 0cc3 e8bc
00000130: 4e09 b8be b1ec d9bd 33f4 cbbd 0eb8 1cbe
00000140: b8ff febd d797 023e 9dfd 29be cba9 33be
00000150: c352 30be bf5a 98be 8524 ecbc bf10 333e
00000160: a783 f33d 8464 913e 2edd 6bbe 57fc fc3d
00000170: 63a3 3bbd 21af 0c3c 68b8 63be b404 eebd
00000180: 8aac 94be 8802 163e a7b9 1abe d9ce 463c
00000190: f53c 7c3e d0fc 6a3e 3abd 773d b395 81be
000001a0: 37af 8dbd 1df1 99bc 5ea7 2f3e e860 3abe
000001b0: 4be0 943b 9986 0f3e 3c60 b4be c6e5 133e
000001c0: a993 85be 5eef 6e3d cc72 8ebc 29f9 7f3d
000001d0: 876a 533e 7516 633e 29d4 c8bd 77cd 48be
000001e0: a0ae 5abe 9e60 f53c 861f c0bd 0ed8 da3d
000001f0: b9c4 3b3e 921c 9b3e c89e 88bd b04c 4e3e
00000200: 8fef 693e 62cd 41be 205b 1fbe 5c4c 93be
00000210: 77dd edbd fb80 72bd 3b3c 9ebe fe2f 62be
00000220: 7474 b0bd 32f4 7c3d a003 433e 075d 67bc
00000230: 14bb 233e 9ea3 113d a6d1 6dbe 3716 b2bd
00000240: 5f14 e13c 6758 083e 4c73 cbbd 59cc e33d
00000250: 7f8b d03e 569f 4a3e 4013 1bbe d069 b3bd
00000260: e9b9 bf3d f919 243e 9386 2bbe 51b5 313e
00000270: d20c 81be a722 59be 96e2 b83c 5d2a 513e
00000280: 8309 e7bd e56c 46bc 5b98 00bd cc42 50be
00000290: b9bd 4c3e 97cf ec3c bb87 85be b315 6bbe
000002a0: 3813 b03d 30eb d7bd 494a 8bbc 0bf5 c1be
000002b0: c843 02bd 230d 473e 4d93 98bd 0e3d 4abe
000002c0: 60ea 253e 5131 26be 86e1 523e 2099 343e
000002d0: f984 0bbe bc5b 95be 4432 9bbc 9798 bd3c
000002e0: af06 773e 7872 263d 26e6 c9bc 0fdb 223e
000002f0: 42d2 173e 30bb 323e 720b 3c3e adc6 863e
00000300: a725 633e f3bb ef3c 6602 853e 2707 253e
00000310: 0120 a93d 954d cb3d 2d2c f8bd 54cd 0abe
00000320: f796 8bbe 4724 9d3e 04b0 303d e588 7cbe
00000330: e30f 7f3e 18c5 6abe f9a4 96be 3d2e 173e
00000340: 73e7 503e 86ab fabd 5cd0 0ebe ebb3 46bd
00000350: ba92 29be 67f4 58be 0524 d03e 69d3 cb3c
00000360: 2ead 9cbc fc7e 91bc c4e2 043e bd59 71bc
00000370: c8a4 ca3e 1d19 aebd 7646 2e3d bfe5 4bbd
00000380: 2ff1 603e 8961 debd e72d 89be 1b5b 823e
00000390: 5ca0 94bd 7ae1 e63a 78bb ab3d fc74 11be
000003a0: 806b 71be cff5 01bd a39a 0a3e 101a b0bd
000003b0: 25ca 1fbe 68dc 283e 915d 15be 35e8 4bbe
000003c0: 67d9 803e acc7 663e dbaa 64be 13ba 6ebe
000003d0: 7f6c af3d da44 643e 0e6f 25be 0bd9 a6be
000003e0: d6ed 2e3e f455 3b3e c66e a9bc 3e71 bbbd
000003f0: 33de 73bd ebd6 113e 8388 50be 194e d33d

block1.6.bias f4 [64]
-2.8527032e-07 -5.654477e-07 -5.0409227e-07 -5.3391483e-07 2.7941685e-06 -1.894109e-06 -1.2374437e-07 4.848865e-07
5.8524626e-07 2.7216566e-07 -7.0274035e-07 2.62868e-07 1.6096755e-06 -5.581057e-07 -1.0498081e-06 -1.2795517e-06
3.501098e-07 1.0548122e-06 -2.1739703e-08 -3.3220212e-07 6.0988356e-07 5.585297e-07 -6.165751e-07 -7.5734636e-07
-2.0199946e-07 1.73982e-07 -9.4642724e-07 1.3563924e-07 4.4929106e-07 6.407525e-07 2.3251296e-06 -4.572153e-09
1.4230318e-06 1.069261e-06 8.0286736e-07 -5.4069477e-07 -8.7507857e-07 -2.0416717e-06 -2.9874272e-07 1.1116406e-06
-1.2799885e-06 1.0493292e-06 3.2590398e-07 6.2931747e-07 -4.92924e-07 6.9838364e-07 -1.8902616e-06 -5.1440077e-07
-4.1779182e-07 -2.6623616e-07 -3.6306656e-07 1.4006082e-06 -9.744452e-07 9.2121877e-07 9.04685e-07 5.639778e-07
7.042136e-07 1.992682e-06 1.3374778e-06 1.2858068e-07 4.6422943e-07 -1.2556663e-06 -1.2236355e-06 -1.1629253e-07
00000000: 4127 99b4 45c9 17b5 f550 07b5 5952 0fb5
00000010: 7383 3b36 1739 feb5 98de 04b4 2629 0235
00000020: d119 1d35 2a1e 9234 f3a3 3cb5 4e20 8d34
00000030: 070c d835 bbd0 15b5 22e7 8cb5 10bd abb5
00000040: b9f6 bb34 1293 8d35 1dbe bab2 8359 b2b4
00000050: e1b6 2335 deed 1535 b882 25b5 724c 4bb5
00000060: 30e5 58b4 cfcf 3a34 fc0d 7eb5 3ba4 1134
00000070: 1836 f134 2d00 2c35 6c09 1c36 1519 9db1
00000080: 00ff be35 8783 8f35 a084 5735 4324 11b5
00000090: f1e6 6ab5 a703 09b6 e362 a0b4 ae33 9535
000000a0: 12cc abb5 add6 8c35 e7f7 ae34 5eee 2835
000000b0: 7b51 04b5 8f78 3b35 e5b4 fdb5 5a15 0ab5
000000c0: df4c e0b4 38ef 8eb4 7deb c2b4 88fc bb35
000000d0: afc9 82b5 ac49 7735 7bd9 7235 4264 1735
000000e0: 3109 3d35 04ba 0536 6383 b335 fd0f 0a34
000000f0: 353b f934 5e88 a8b5 cc3b a4b5 7fbc f9b3

block1.7.weight f4 [64]
0.8887185 1.0592127 0.88116586 0.8198555 1.0804044 0.8992802 0.841446 1.0043925
0.9649179 0.8951963 0.8697837 0.9165521 1.0056012 1.0128163 0.8976943 0.8267235
0.81130815 1.0383332 1.0219208 0.89106643 0.99038035 1.1014917 1.0984677 0.78092104
0.96444434 1.0307418 0.9664106 0.9311646 0.97134244 1.0545764 1.0636758 0.74581534
1.0777926 1.1452686 0.8688071 0.9833955 0.9171763 0.9805149 0.97197986 1.1468731
0.86057705 0.9325641 0.9700448 1.0460879 0.76182705 1.1023294 0.9482561 0.98112243
0.94644856 0.7504613 0.8886883 1.032453 0.94255835 1.1574633 0.94607574 0.9779078
0.9689528 0.928603 0.9773237 0.98588765 0.8819961 0.9047473 0.8962877 0.9472642
00000000: 0e83 633f 4894 873f 1694 613f 0de2 513f
00000010: b14a 8a3f 3a37 663f 0169 573f ef8f 803f
00000020: dc04 773f 962b 653f 25aa 5e3f 29a3 6a3f
00000030: 8ab7 803f f7a3 813f 4bcf 653f 27a4 533f
00000040: e4b1 4f3f 1ae8 843f 4dce 823f ee1c 643f
00000050: 9189 7d3f aefd 8c3f 979a 8c3f 71ea 473f
00000060: d3e5 763f 59ef 833f af66 773f ce60 6e3f
00000070: e6a9 783f 5cfc 863f 8726 883f c1ed 3e3f
00000080: 1cf5 893f 2998 923f 246a 5e3f cfbf 7b3f
00000090: 11cc 6a3f 0603 7b3f acd3 783f bdcc 923f
000000a0: c74e 5c3f 85bc 6e3f db54 783f 35e6 853f
000000b0: 1907 433f 2119 8d3f e9c0 723f d72a 7b3f
000000c0: 744a 723f 3b1e 403f 1481 633f 6b27 843f
000000d0: 814b 713f c227 943f 0532 723f 2a58 7a3f
000000e0: 4a0d 783f edb8 6d3f e331 7a3f 2263 7c3f
000000f0: 7fca 613f 859d 673f 1c73 653f e87f 723f
